assets/tflite/lotto_sequence_model.tflite (tflite, 25456 bytes, 8 tensors)

arith.constant f4 [128]
000000 d2 3f 81 bf 2a 30 5d bf 40 db 3e bf 25 6d 88 bf
       -1.0097601 -0.8640162 -0.745533 -1.0658308
000010 3a b9 49 bf d3 3d 0f bf fd 03 85 bf db 07 85 bf
       -0.7879826 -0.5595371 -1.0391842 -1.0393022
000020 54 79 59 bf dd 2b 26 bf ec f5 95 bf 38 7d 66 bf
       -0.8495076 -0.6491068 -1.1715674 -0.9003482
000030 b8 c3 6c bf 48 5b 44 bf 11 b7 34 bf de 2f 8b bf
       -0.92486143 -0.76701784 -0.7059184 -1.0873983
000040 4d 01 69 bf 51 e5 61 bf a7 39 62 bf 1e 10 47 bf
       -0.9101761 -0.88240534 -0.8836922 -0.7775897
000050 52 a4 5f bf 34 b7 8e bf 89 9c 7d bf b0 18 61 bf
       -0.8736011 -1.1149659 -0.9906698 -0.87928295
000060 bc 56 42 bf cf 8f 5e bf ce ab 52 bf 42 71 62 bf
       -0.75913596 -0.86938184 -0.82293403 -0.8845407
000070 02 fe 26 bf 58 90 2d bf 93 1a 7c bf 8f 4d 09 bf
       -0.65231335 -0.67798376 -0.9847805 -0.5363397
000080 f5 1b 3b bf 70 25 92 bf 92 bb 2a bf 69 1d 26 bf
       -0.73089534 -1.1417675 -0.6669246 -0.64888626
000090 0d ed 72 bf a8 8d 91 bf 29 a8 43 bf 2d f0 67 bf
       -0.9489296 -1.1371355 -0.7642847 -0.90600854
0000a0 47 25 86 bf b6 ff 73 bf 39 d2 6b bf 6c da 87 bf
       -1.0480126 -0.9531206 -0.9211765 -1.0613532
0000b0 6a fd 77 bf 54 63 25 bf 90 2b 5c bf a7 57 87 bf
       -0.96871054 -0.6460469 -0.8600397 -1.0573624
0000c0 e6 97 6d bf 43 88 5a bf 65 59 00 bf 1f 13 38 bf
       -0.92809904 -0.8536417 -0.50136405 -0.71904176
0000d0 1d df 5f bf 2b d3 6c bf b9 1c 85 bf c0 4a 7b bf
       -0.8744982 -0.92509717 -1.039939 -0.98160934
0000e0 a4 83 88 bf 06 66 88 bf 56 04 84 bf f4 9c 69 bf
       -1.0665174 -1.0656135 -1.0313823 -0.91255116
0000f0 7f 26 3e bf 7e 4d 82 bf d9 ad 25 bf f6 75 49 bf
       -0.7427749 -1.0179899 -0.64718395 -0.7869562
000100 79 7c 20 bf 00 4b 65 bf 3c d3 5d bf 0a c5 8c bf
       -0.6268993 -0.89567566 -0.86650443 -1.0997632
000110 15 39 5b bf 90 59 86 bf 41 41 84 bf 60 ab 3b bf
       -0.85633975 -1.0496082 -1.0332414 -0.7330837
000120 60 8c 45 bf b4 e8 8d bf c3 44 70 bf 1f 17 6b bf
       -0.7716732 -1.108664 -0.9385492 -0.91832155
000130 61 58 61 bf e0 63 88 bf ec 0c 4a bf 4b cb 4b bf
       -0.8802548 -1.065548 -0.7892597 -0.79607075
000140 14 e7 54 bf e9 7c 48 bf e1 44 82 bf 7d 4e 41 bf
       -0.831651 -0.783156 -1.017727 -0.7551039
000150 07 1f 69 bf 37 69 3a bf 29 96 39 bf a0 d8 66 bf
       -0.9106297 -0.72816795 -0.7249475 -0.90174294
000160 9c 7c 8c bf b6 4f 8e bf dc 3e 6e bf 8b 8e 41 bf
       -1.0975528 -1.1118076 -0.93064666 -0.7560813
000170 34 51 7d bf c4 42 80 bf 7c 3b 1e bf 26 70 72 bf
       -0.9895203 -1.0020375 -0.61809516 -0.94702375
000180 dd a2 83 bf 9b 80 34 bf 6a bd 77 bf 3e be 54 bf
       -1.0284077 -0.70508736 -0.967734 -0.83102787
000190 09 f2 3e bf c3 73 7c bf e6 85 74 bf 53 6a 8e bf
       -0.74588066 -0.9861414 -0.9551681 -1.1126198
0001a0 ee 30 40 bf 1f be 80 bf de bd 67 bf 30 15 56 bf
       -0.7507466 -1.005802 -0.9052409 -0.8362608
0001b0 73 60 50 bf 3a 1b 72 bf 0d 7b 5c bf 9c 98 1f bf
       -0.8139717 -0.94572794 -0.8612526 -0.6234224
0001c0 d9 47 78 bf 1c b3 81 bf 7e 5a 8d bf a7 e0 55 bf
       -0.9698463 -1.0132785 -1.1043241 -0.8354592
0001d0 28 a3 63 bf 41 57 6a bf f3 52 5d bf 33 d6 92 bf
       -0.8892083 -0.9153939 -0.86454695 -1.1471618
0001e0 e0 f4 45 bf 10 c7 6e bf 0a 51 79 bf 75 bd 91 bf
       -0.77326775 -0.93272495 -0.9738928 -1.1385943
0001f0 04 46 79 bf b3 fd 94 bf 3a fd 92 bf f5 1a 48 bf
       -0.9737246 -1.1639923 -1.1483529 -0.78166133

arith.constant1 f4 [32]
000000 6c 41 af be 43 58 2d bf 67 89 c3 be a0 2f 15 bf
       -0.342296 -0.677128 -0.38190767 -0.58275795
000010 05 88 db 3e 5f cf 81 3e c7 38 df 3e c9 01 61 3d
       0.42877212 0.25353524 0.43598005 0.054933343
000020 72 28 98 3e 18 7b 07 3f ac 3e 82 3e f1 7a c0 3e
       0.29718357 0.529222 0.2543844 0.37593797
000030 e7 f7 68 be 55 37 94 3e f9 15 88 3d 87 41 b5 3e
       -0.22750817 0.28948465 0.06644816 0.35401556
000040 98 49 5e 3e e1 a4 8f 3c c3 a7 02 3f d7 83 b6 3d
       0.21707761 0.017534675 0.51037234 0.08911865
000050 c4 82 4b 3c a2 ab ef 3e 94 7b e2 3e 06 3c 81 3e
       0.012421314 0.46810633 0.44234908 0.25241107
000060 52 4b b3 3e 16 c4 a5 3e 3f f0 0e 3f 5d ad 4c 3d
       0.35018402 0.32376164 0.55835336 0.04997002
000070 b1 22 1f bf 90 8b 8e 3e cd 63 08 3f 40 93 7f 3e
       -0.6216231 0.27840853 0.53277284 0.24958515

arith.constant2 f4 [64]
000000 2b 91 88 3d dc 13 03 3c 0c 79 a7 3d 13 d3 30 be
       0.066683136 0.00800034 0.08177385 -0.17268018
000010 c1 b0 13 3e 0b 9b 57 bd a1 9f 27 3e 50 25 81 be
       0.14422895 -0.052638095 0.16369487 -0.2522378
000020 a5 a0 92 3e bc 99 8b be f9 d3 51 be 67 7e 2e be
       0.28638187 -0.27265728 -0.20491017 -0.17040406
000030 06 12 2d be 97 13 5d bd 60 a7 84 be cd 78 99 3c
       -0.16901407 -0.05397376 -0.25908947 0.01873436
000040 12 63 01 3c 74 b3 e8 3d 9f da f6 bd 46 89 83 3c
       0.007897155 0.11362353 -0.120534174 0.016056668
000050 d1 6e d7 3c 80 4e 85 bd 4f cc 2e be 42 0f 3a 3d
       0.026297959 -0.06509113 -0.17070125 0.045424707
000060 a0 1a a5 bd aa 96 03 3e 65 ed 3e 3e bb 11 77 bd
       -0.08061719 0.12850443 0.18645246 -0.060319643
000070 8d 9b f2 3c 5a 8a 83 bd ed 55 24 3d 99 ef a2 be
       0.029615188 -0.06422873 0.040121008 -0.31823424
000080 29 71 5f 3e 65 e7 36 3d 84 37 09 3e 6f 3c bb 3d
       0.21820511 0.04465427 0.13400084 0.09142386
000090 60 e6 54 3e 5e fc 00 3e 0c 9d 23 3e 50 5c 09 bd
       0.20791006 0.1259627 0.15977877 -0.0335353
0000a0 56 40 81 3e c6 17 c8 3d c7 15 e5 3d 8a 1d 20 be
       0.25244397 0.097701594 0.11185794 -0.15636268
0000b0 41 10 0b bd c1 d6 74 3c 33 dd 14 3e ff 16 5f 3e
       -0.033951048 0.014943779 0.14537506 0.21786116
0000c0 cc 4f 4c be aa 5c f4 3d d9 de ab 3e 8b 57 dd bd
       -0.19952315 0.11931737 0.33568457 -0.10807713
0000d0 63 c7 7e 3e b9 d0 1f 3d 67 38 de be aa 7d 1c be
       0.24880747 0.039017413 -0.43402407 -0.15282312
0000e0 40 d2 ca 3a 7c 20 1a bc ce 7d 35 3e 5e f0 4b be
       0.0015474036 -0.009407159 0.17723772 -0.19915912
0000f0 70 03 8d bd 0d cf 0e 3d db ca f3 3c 6c a3 e3 3c
       -0.06885421 0.034865428 0.029759815 0.027787887

arith.constant3 f4 [6]
000000 8f 23 74 bf 82 b8 e9 be f7 5b d6 b9 4d 6f 87 3e
       -0.9536676 -0.4564858 -0.0004088578 0.26452103
000010 76 6b 15 3f e0 df 88 3f
       0.583671 1.0693321

arith.constant4 f4 [6, 32]
000000 f0 c3 51 3e 0c 5f 91 bb 3d 6a 90 be 1c 27 18 be
       0.204849 -0.0044363793 -0.28206053 -0.14858669
000010 b5 cb 79 be e8 11 74 3d eb bd 03 3d fd c0 41 be
       -0.24394114 0.05958739 0.03216354 -0.18921275
000020 c3 53 b6 bd ab 69 cd bd 42 fa 52 be ae 5d 6e 3d
       -0.08902695 -0.1002992 -0.20603278 0.05819481
000030 ef fd e8 3d 75 29 eb bd b2 7a 47 be 5d ae 91 3d
       0.11376559 -0.11482517 -0.19480398 0.07113335
000040 65 ba 52 bd ef ac c1 bd d4 8f da bd d2 89 c4 3c
       -0.05144729 -0.094568126 -0.10671964 0.0239915
000050 db 08 08 3e 49 9e 66 3d f6 9b 3d be 0f d6 c3 bd
       0.13284628 0.056303296 -0.18516526 -0.09562313
000060 ae 91 65 3e d2 d1 1b 3e 55 56 30 be d4 b7 88 be
       0.22418854 0.15216759 -0.17220433 -0.2670275
000070 10 73 63 bd 26 36 04 3c 2a 57 9c bc 9e 8d c2 bc
       -0.055529654 0.008069551 -0.019084532 -0.023749169
000080 60 e3 9c 3d 10 21 7e 3e 64 f8 8f bd 08 f6 04 3e
       0.07660556 0.248173 -0.070297986 0.12984478
000090 17 48 01 be a2 74 04 bd a4 dc 70 3d 79 57 f2 3d
       -0.12625156 -0.032337792 0.05880417 0.1183309
0000a0 84 be c8 bd 78 6c e2 bd 2b bc ba bc 26 c6 2d 3e
       -0.09801963 -0.11055845 -0.022794804 0.16970119
0000b0 9e 62 2c be 10 31 b1 bd 45 0c 36 be 77 5d 63 3d
       -0.16834494 -0.08651936 -0.17778118 0.055509057
0000c0 48 71 90 bd c2 63 7f bd 51 9b 0e bd 3c 15 55 bd
       -0.07052857 -0.062350996 -0.03481609 -0.052022204
0000d0 cc 68 89 3d 91 d2 8c 3d 53 b4 3b be c8 fc 05 3d
       0.067094415 0.068761 -0.18330507 0.032711774
0000e0 a1 42 17 3d 14 08 ec 3d bf a1 d0 bd fc 1c df 3d
       0.036928777 0.11524978 -0.101871006 0.108942
0000f0 8b ae fb bd 4a e3 e1 3c 7f 76 4f bd 1d ea 4d 3d
       -0.12289151 0.0275742 -0.050650116 0.050272096
000100 03 c1 ad bd df b6 db 3d 83 17 3a 3d fe 4d 90 bd
       -0.0848408 0.10728239 0.04543258 -0.07046126
000110 f5 2c ca bd e3 13 d3 3c e9 34 81 3d 83 02 e1 3c
       -0.09871856 0.025766319 0.0630892 0.027467018
000120 2a 8a f8 bb c5 9f bc bd 06 17 50 3d 4f 48 6e 3d
       -0.00758483 -0.09210161 0.050803207 0.058174428
000130 db 1d 7a 3d cf 12 b6 bd ae dc d3 bd f9 92 45 3d
       0.06106363 -0.08890306 -0.10344826 0.048235867
000140 44 f6 ef bd eb 00 50 be bc 4b 26 bd 19 62 f0 bd
       -0.11716893 -0.2031285 -0.04059957 -0.11737461
000150 f9 42 df 3d dd 10 8f 3d e9 7c 74 bd 9c 07 5d 3d
       0.10901446 0.06985638 -0.059689436 0.053962335
000160 66 fc 5d bd d2 0a 7f 3d 9f 54 ca bd 77 52 de 3d
       -0.054195784 0.06226618 -0.098794214 0.10855573
000170 2b 96 7a be e4 ba 0b bc 5a a3 a4 bd 1a c0 0a 3e
       -0.24471347 -0.008528445 -0.08038969 0.13549843
000180 05 29 11 be 8c d5 e8 3d 5b 04 d1 3d 0b e3 01 be
       -0.14175804 0.11368856 0.10205909 -0.12684266
000190 50 d3 93 bc 25 c3 a6 3d eb c7 9a 3d c7 61 22 bd
       -0.018045098 0.081426896 0.075576626 -0.03964403
0001a0 d9 31 89 3c 88 77 97 bd f6 6b 15 3d 95 5f f9 3b
       0.016747402 -0.07395846 0.036479913 0.007610271
0001b0 b4 9f d9 3a 77 2b e4 bc aa 51 3c bd 9b ed 8f 3d
       0.0016603381 -0.027852757 -0.04597632 0.070277415
0001c0 ed cd da bd 3c d5 06 be 4a 3d 6c bd e7 cb f9 3d
       -0.106838085 -0.1316728 -0.057675637 0.121970944
0001d0 2e 3e ae 3d 38 94 9a 3d 62 38 61 bd 89 80 c7 3d
       0.085079536 0.07547802 -0.05498541 0.09741313
0001e0 29 32 c5 bd bb 69 f4 3c 74 70 88 bd ff 64 e8 3c
       -0.09628708 0.029835572 -0.06662074 0.028368471
0001f0 fd d1 19 3e b2 9b 22 bd 72 b8 de bd d4 51 a7 3d
       0.1502151 -0.039699264 -0.10875024 0.08169904
000200 3d 9e 62 3e 02 c8 53 3e 0a d1 86 bb ce 9c 2e 3c
       0.22130676 0.20681766 -0.004114275 0.010657502
000210 0c 2c ae 3b 00 79 10 3e 2d f8 d5 3d 71 0a df bd
       0.0053153094 0.14108658 0.104477264 -0.108906634
000220 93 0e f3 3d b6 64 82 bd 94 1a d5 3d d2 2e 6a 3d
       0.11868014 -0.06366865 0.1040546 0.057173558
000230 6c cc 30 3e 42 ba 9e 3d f5 34 81 bd 10 58 b3 3d
       0.17265481 0.077503696 -0.06308929 0.08757031
000240 84 93 8b bd d9 a3 a7 3d a5 d5 18 be c0 b8 33 3d
       -0.06815246 0.08185548 -0.14925249 0.043877363
000250 de b0 5e 3d 2a d6 4b 3d 54 a8 35 bd a6 87 fa 3d
       0.054367892 0.04976479 -0.044349983 0.12232904
000260 30 59 63 bd ab 56 25 bd 69 ba f0 bc 7e 88 0e bd
       -0.055504978 -0.040365856 -0.029385762 -0.034798138
000270 6e ec 3f 3d c2 00 9c bd 73 fd 06 be 25 35 83 3d
       0.046856336 -0.07617332 -0.1318262 0.06406621
000280 c7 7f 44 3e 90 2d 5f 3c 30 05 14 be 4e 5e 16 3e
       0.19189368 0.013621703 -0.14455104 0.14684412
000290 fa ea 50 bd 8d 11 49 3e c2 3e 23 3e 6f 47 a1 3e
       -0.05100534 0.19635601 0.15941909 0.31499812
0002a0 92 3d 72 3e 27 4a 8f bc f2 f7 ca 3d c3 86 73 3d
       0.236563 -0.017491413 0.09910573 0.05945469
0002b0 2a 03 b4 3d 83 f3 45 3e b5 66 ca 3c ed ea dd 3d
       0.08789666 0.19331174 0.024707178 0.10835824
0002c0 e2 20 2b 3e d0 a7 31 bc 6f 54 e5 bd 36 26 58 3e
       0.16711763 -0.010843232 -0.11197745 0.21108326
0002d0 7e 20 ae 3d 8a 58 4a 3e 0f 6a bb bc 59 3f 68 3d
       0.08502291 0.19760337 -0.022877721 0.056701038
0002e0 35 76 b9 bd cd 84 52 be 0e 9b 45 bd 9a dc 06 be
       -0.09055749 -0.20558472 -0.048243575 -0.1317009
0002f0 71 d4 2d be 10 3a 50 be e6 9c 9c bd 6e a6 02 3d
       -0.16975571 -0.20334649 -0.076471135 0.031897

tfl.pseudo_qconst i1 [32, 64]
000000 e2 e1 b1 0e ec a1 ee 09 cf c9 3b f8 e0 f8 89 1f
       -30 -31 -79 14 -20 -95 -18 9 -49 -55 59 -8 -32 -8 -119 31
000010 c0 73 57 cf dd e4 b1 c7 c4 ec f3 c8 91 c2 dd d2
       -64 115 87 -49 -35 -28 -79 -57 -60 -20 -13 -56 -111 -62 -35 -46
000020 f2 f3 cb b4 23 31 30 be bd ab 38 32 e9 a4 40 81
       -14 -13 -53 -76 35 49 48 -66 -67 -85 56 50 -23 -92 64 -127
000030 dd ed fb 14 b4 20 85 01 e8 d3 c2 8a f0 d9 5c 28
       -35 -19 -5 20 -76 32 -123 1 -24 -45 -62 -118 -16 -39 92 40
000040 e8 d3 ec a6 8d 06 e5 d0 fa 1d 81 22 cb f8 dd 24
       -24 -45 -20 -90 -115 6 -27 -48 -6 29 -127 34 -53 -8 -35 36
000050 c3 f9 b1 ca 19 db c4 eb e7 ab 16 dd ec c1 20 9f
       -61 -7 -79 -54 25 -37 -60 -21 -25 -85 22 -35 -20 -63 32 -97
000060 b2 b2 bb fc d5 f4 e4 18 16 32 f0 0f 8b 4c b0 c4
       -78 -78 -69 -4 -43 -12 -28 24 22 50 -16 15 -117 76 -80 -60
000070 fc a4 9f 2f b8 e1 c5 0b 2a db 83 49 ee 2a dc e8
       -4 -92 -97 47 -72 -31 -59 11 42 -37 -125 73 -18 42 -36 -24
000080 2d c6 40 64 e3 dc 1f 0e 9d a9 ce aa ec de 50 9a
       45 -58 64 100 -29 -36 31 14 -99 -87 -50 -86 -20 -34 80 -102
000090 97 b0 94 25 1c d9 f5 d7 cf 89 f4 47 2c dc c2 0e
       -105 -80 -108 37 28 -39 -11 -41 -49 -119 -12 71 44 -36 -62 14
0000a0 f6 a5 47 81 97 91 0c f6 04 e9 b3 c0 c6 b7 0b 18
       -10 -91 71 -127 -105 -111 12 -10 4 -23 -77 -64 -58 -73 11 24
0000b0 eb 74 38 bc ba 0e 34 d7 98 03 ed 48 01 33 0d 3e
       -21 116 56 -68 -70 14 52 -41 -104 3 -19 72 1 51 13 62
0000c0 02 1b 07 1e f7 19 22 24 d9 f5 e5 ef 2c ec fa cd
       2 27 7 30 -9 25 34 36 -39 -11 -27 -17 44 -20 -6 -51
0000d0 d8 34 09 fb 07 06 16 1a cd d7 bb ac d7 01 fe f5
       -40 52 9 -5 7 6 22 26 -51 -41 -69 -84 -41 1 -2 -11
0000e0 09 da d7 fd dc e2 e0 27 0c c8 e8 12 81 ab f6 1e
       9 -38 -41 -3 -36 -30 -32 39 12 -56 -24 18 -127 -85 -10 30
0000f0 e4 cb c3 ee 05 05 07 e5 e6 08 e4 ec 13 e6 fc f1
       -28 -53 -61 -18 5 5 7 -27 -26 8 -28 -20 19 -26 -4 -15

tfl.pseudo_qconst1 i1 [64, 128]
000000 d5 bf 21 0e 0e ea 07 f6 10 04 e7 ef fd 04 c9 c5
       -43 -65 33 14 14 -22 7 -10 16 4 -25 -17 -3 4 -55 -59
000010 0f d1 e8 18 0d 0b 32 0d b7 1c cf 1e b0 0b f3 e7
       15 -47 -24 24 13 11 50 13 -73 28 -49 30 -80 11 -13 -25
000020 10 2b 0e 06 06 bb e4 e8 19 d1 1c 0f d9 0f e1 df
       16 43 14 6 6 -69 -28 -24 25 -47 28 15 -39 15 -31 -33
000030 e9 0e 15 d5 1d f6 88 24 d5 32 e4 07 ef d8 19 e1
       -23 14 21 -43 29 -10 -120 36 -43 50 -28 7 -17 -40 25 -31
000040 0a ff b3 1a f4 ff 02 f3 09 fa 31 fa b5 ee b6 d3
       10 -1 -77 26 -12 -1 2 -13 9 -6 49 -6 -75 -18 -74 -45
000050 08 f7 2a df f7 05 fe 23 f5 d9 fa e4 14 c3 03 f4
       8 -9 42 -33 -9 5 -2 35 -11 -39 -6 -28 20 -61 3 -12
000060 19 9e fa 13 a1 02 be e3 a6 0e f8 b8 01 ec 20 f8
       25 -98 -6 19 -95 2 -66 -29 -90 14 -8 -72 1 -20 32 -8
000070 e0 f8 18 08 ee 1e 1c 81 e7 12 11 cb fc 96 ec f0
       -32 -8 24 8 -18 30 28 -127 -25 18 17 -53 -4 -106 -20 -16
000080 b5 fa 8e ef 34 e9 d7 07 f4 ce c5 0b a8 a6 c7 0a
       -75 -6 -114 -17 52 -23 -41 7 -12 -50 -59 11 -88 -90 -57 10
000090 d8 07 1a f4 3d fb d1 de bf ec c4 c4 f0 16 c9 2c
       -40 7 26 -12 61 -5 -47 -34 -65 -20 -60 -60 -16 22 -55 44
0000a0 20 f7 15 0d 44 e5 01 f3 eb 19 c3 25 b5 ce f4 e5
       32 -9 21 13 68 -27 1 -13 -21 25 -61 37 -75 -50 -12 -27
0000b0 03 97 a7 b5 fe e6 27 e9 ba e0 c0 ea f7 1a df 25
       3 -105 -89 -75 -2 -26 39 -23 -70 -32 -64 -22 -9 26 -33 37
0000c0 c4 29 81 df fa 0a 93 e6 c2 f5 11 f8 18 06 e3 13
       -60 41 -127 -33 -6 10 -109 -26 -62 -11 17 -8 24 6 -29 19
0000d0 1f 0e eb 1b ec 0d c0 e4 ce bf 02 12 28 ff 0a e0
       31 14 -21 27 -20 13 -64 -28 -50 -65 2 18 40 -1 10 -32
0000e0 97 bb e7 00 f2 df eb cb f3 c4 14 c5 a6 e0 01 2d
       -105 -69 -25 0 -14 -33 -21 -53 -13 -60 20 -59 -90 -32 1 45
0000f0 bb d1 03 b7 2d 02 01 b8 f9 21 46 a2 e4 a6 be d1
       -69 -47 3 -73 45 2 1 -72 -7 33 70 -94 -28 -90 -66 -47

sequential_1/dense_1/MatMul i1 [128, 65]
000000 10 20 d2 0a 21 24 08 e3 1b 1b 3a d7 06 e3 0c 17
       16 32 -46 10 33 36 8 -29 27 27 58 -41 6 -29 12 23
000010 1d fd 4e ee de f4 eb c6 b6 d5 e3 e0 d7 e4 ea f7
       29 -3 78 -18 -34 -12 -21 -58 -74 -43 -29 -32 -41 -28 -22 -9
000020 c0 22 28 d5 fc 29 0a f5 e2 fa 1c 81 d9 04 ec 02
       -64 34 40 -43 -4 41 10 -11 -30 -6 28 -127 -39 4 -20 2
000030 c9 1e 49 dc f8 e4 f8 3f 11 c9 06 ea db eb 55 00
       -55 30 73 -36 -8 -28 -8 63 17 -55 6 -22 -37 -21 85 0
000040 cf 16 f0 18 c5 33 00 cb c5 7f d0 fd fb 25 c4 f7
       -49 22 -16 24 -59 51 0 -53 -59 127 -48 -3 -5 37 -60 -9
000050 e4 e6 07 fe fd f1 2b f9 e6 07 f3 f9 bd 5e fd fb
       -28 -26 7 -2 -3 -15 43 -7 -26 7 -13 -7 -67 94 -3 -5
000060 9f 05 06 12 27 48 d5 d0 fe 04 27 f0 f2 f4 d8 18
       -97 5 6 18 39 72 -43 -48 -2 4 39 -16 -14 -12 -40 24
000070 1e 08 53 03 bc f8 5e e9 d1 fc ce f6 08 11 fa ee
       30 8 83 3 -68 -8 94 -23 -47 -4 -50 -10 8 17 -6 -18
000080 39 02 81 01 d7 53 c0 25 1f e4 d8 df 26 fc 21 f3
       57 2 -127 1 -41 83 -64 37 31 -28 -40 -33 38 -4 33 -13
000090 14 35 a4 19 02 fe c6 d8 e9 06 fd 2f 1b 3d bf f5
       20 53 -92 25 2 -2 -58 -40 -23 6 -3 47 27 61 -65 -11
0000a0 e1 1c 47 1f 2d b8 0c a3 0b fd 0a 1a f4 b9 e8 d3
       -31 28 71 31 45 -72 12 -93 11 -3 10 26 -12 -71 -24 -45
0000b0 c6 34 d6 b5 1c 2b ec 2c 21 b3 c5 cd 27 f0 de 51
       -58 52 -42 -75 28 43 -20 44 33 -77 -59 -51 39 -16 -34 81
0000c0 ee c3 fc c0 ed e2 31 2c af fa f5 d6 7f 13 0c ab
       -18 -61 -4 -64 -19 -30 49 44 -81 -6 -11 -42 127 19 12 -85
0000d0 f3 1b 25 c8 6a 20 16 fe ba 05 0d 4d fb e6 ed 39
       -13 27 37 -56 106 32 22 -2 -70 5 13 77 -5 -26 -19 57
0000e0 4c e6 3f 23 a7 0c 12 4f 15 eb 22 d7 1a 12 2e d5
       76 -26 63 35 -89 12 18 79 21 -21 34 -41 26 18 46 -43
0000f0 1d 89 0f a8 1d 43 29 03 d7 20 eb 57 1f e6 02 10
       29 -119 15 -88 29 67 41 3 -41 32 -21 87 31 -26 2 16
